checkpoint.pth (torch_old, 205775 bytes, 8 tensors)

fc1.weight f4 [256, 37]
-0.039799374 0.102263406 -0.10766126 -0.13154837 -0.08433072 0.018026326 0.019179251 0.1428203
-0.017019168 0.023417221 -0.05978404 -0.007055275 -0.14552853 -0.1466437 -0.1073586 -0.0525427
0.08884172 0.12690708 -0.083792426 -0.06455066 0.06012514 0.16041388 -0.040466756 0.09667205
-0.06362873 0.011953668 0.1857897 -0.18810926 -0.08901486 -0.05621844 -0.058272883 0.165685
-0.12285597 -0.092952535 -0.13120879 -0.19716167 -0.0665495 0.16477188 0.02696212 0.078220606
-0.0113932695 -0.14078566 -0.05778737 -0.14058417 -0.054393336 -0.056195136 0.06602637 0.04377658
-0.10353863 0.03130699 0.110133074 0.13881096 0.08002286 0.008216004 0.06477229 -0.11942415
-0.0067898934 -0.11234 -0.17364934 -0.07122975 0.021701038 0.028563173 -0.076232225 0.00260599
0.09344827 -0.1349045 -0.14065118 0.004613678 0.07599178 0.17478442 -0.12742388 -0.18353283
0.059115037 0.07951585 0.1271456 0.15125938 0.04165528 -0.16840911 0.19397794 -0.077798665
-0.18778802 0.1412011 0.10834218 -0.20001312 0.02294588 -0.041273262 -0.012595436 -0.09608155
0.038950104 -0.09071483 0.055232264 0.052475348 0.13831325 0.13458641 -0.16595617 -0.10792722
0.049617026 0.048226506 -0.19004723 -0.14533794 0.15853688 0.11897027 -0.07081829 -0.022002852
-0.1961002 1.873764e-05 -0.096365444 -0.14973712 -0.028544094 0.02684037 -0.058707565 0.1750328
-0.06862369 0.11524447 0.034936756 -0.18085822 -0.030337589 0.051652417 0.034622744 -0.030814745
0.0025856514 0.05283725 -0.08667579 0.06335364 -0.14994454 -0.15117896 -0.0029026899 -0.078015536
-0.07993217 -0.10031862 -0.047828536 0.1162821 -0.106119104 -0.08103375 0.046502486 -0.05865117
-0.031256843 0.08686451 0.07816646 0.056269057 0.17709091 0.14710212 0.17575148 -0.064074494
-0.19968222 -0.17091015 0.1122714 0.0053748437 -0.07663952 -0.14544243 -0.15172876 -0.11167951
0.0039294306 0.03321795 0.16816108 -0.14825025 0.13629188 -0.03666068 -0.060351968 -0.070702285
-0.027742505 0.018318476 -0.1292203 -0.15310465 -0.037211552 -0.014588937 -0.016732717 0.18815993
-0.15472622 -0.0029921567 0.10069865 -0.0050980956 0.17791419 0.07271707 -0.22744241 0.09253429
0.0434421 0.12582856 0.091013215 -0.11783515 0.008992858 0.031014943 0.19893512 0.0298107
0.065231465 0.06687418 -0.08710459 -0.01408429 -0.15770498 0.03949166 0.16522461 0.026998151
-0.21178636 -0.09477467 -0.43171173 -0.107366115 -0.09564634 0.03524001 -0.10700836 -0.03995668
0.011815639 0.07372458 -0.12952313 -0.12947176 -0.171512 0.09593378 -0.059469387 0.12755488
0.040417053 0.028553415 -0.017628912 -0.026701659 0.0146673 -0.062146474 -0.06358122 0.017527448
-0.1420053 -0.096432835 0.09836646 -0.17147763 -0.024641326 0.13701469 0.117012955 0.017028669
-0.21668488 0.09259488 -0.321768 0.035542987 -0.08682387 -0.038047317 -0.052175447 0.07600493
-0.022260014 0.19143485 0.13322005 -0.118755 0.10620675 -0.14996031 -0.019634636 0.078656614
0.012907547 0.10619045 -0.059484705 0.04333996 0.07817675 -0.16251427 0.13712905 -0.15297413
0.044986423 -0.039506357 -0.0943728 -0.01564769 0.14201131 -0.050809763 -0.026271777 -0.1313336
00000000: ab04 23bd 7a6f d13d 827d dcbd 9eb4 06be
00000010: 96b5 acbd f2ab 933c ce1d 9d3c 7c3f 123e
00000020: c86b 8bbc 79d5 bf3c 1ce0 74bd f02f e7bb
00000030: 6e05 15be c429 16be d3de dbbd 0437 57bd
00000040: a6f2 b53d eef3 013e 5d9b abbd 2333 84bd
00000050: c745 763d 8943 243e 78c0 25bd fffb c53d
00000060: c84f 82bd 51d9 433c a83f 3e3e b79f 40be
00000070: 6c4d b6bd 4f45 66bd 8caf 6ebd 54a9 293e
00000080: e99b fbbd e65d bebd 995b 06be c0e4 49be
00000090: 1b4b 88bd f6b9 283e aadf dc3c 2032 a03d
000000a0: d6aa 3abc 1e2a 10be 73b2 6cbd 4cf5 0fbe
000000b0: 8ccb 5ebd df2c 66bd d538 873d 124f 333d
000000c0: 100c d4bd c23b 003d 738d e13d 7624 0e3e
000000d0: 06e3 a33d 6b9c 063c 56a7 843d a694 f4bd
000000e0: c17d debb 8412 e6bd 22d1 31be e7e0 91bd
000000f0: 60c6 b13c 51fd e93c a41f 9cbd 42c9 2a3b
00000100: ce61 bf3d 6824 0abe dd06 10be 562e 973b
00000110: 94a1 9b3d b0fa 323e 687b 02be 08f0 3bbe
00000120: 9c22 723d 35d9 a23d 7532 023e bde3 1a3e
00000130: ba9e 2a3d 7073 2cbe 27a2 463e e854 9fbd
00000140: 814b 40be 0597 103e 81e2 dd3d 3dd0 4cbe
00000150: 00f9 bb3c 270e 29bd 165d 4ebc 67c6 c4bd
00000160: 258a 1f3d b2c8 b9bd 3a3b 623d 64f0 563d
00000170: fda1 0d3e 05d1 093e 6af0 29be f208 ddbd
00000180: 393b 4b3d 2889 453d be9b 42be 78d3 14be
00000190: 7e57 223e afa6 f33d 2e09 91bd 533f b4bc
000001a0: 7ece 48be c72e 9d37 3f5b c5bd b054 19be
000001b0: 4ed5 e9bc 56e0 db3c 5877 70bd cc3b 333e
000001c0: 948a 8cbd 4b05 ec3d d819 0f3d e632 39be
000001d0: 8986 f8bc 7c91 533d 94d0 0d3d 346f fcbc
000001e0: 0874 293b df6b 583d 1483 b1bd 8ebf 813d
000001f0: 108b 19be a8ce 1abe 0e3b 3ebb 9cc6 9fbd
00000200: 7ab3 a3bd d973 cdbd dbe7 43bd 4f25 ee3d
00000210: f954 d9bd 06f5 a5bd 6479 3e3d 363c 70bd
00000220: 2d07 00bd 05e6 b13d bd15 a03d 627a 663d
00000230: 5257 353e f0a1 163e 32f8 333e 7d39 83bd
00000240: 7f79 4cbe 1203 2fbe 8cee e53d 751f b03b
00000250: 2ef5 9cbd dcee 14be c95e 1bbe 3ab8 e4bd
00000260: 74c2 803b 8c0f 083d 6b32 2c3e eace 17be
00000270: 1990 0b3e 8229 16bd a033 77bd 5ccc 90bd
00000280: 4044 e3bc a110 963c 5452 04be 77c7 1cbe
00000290: 246b 18bd 7006 6fbc 0d13 89bc ffac 403e
000002a0: 8d70 1ebe 0f18 44bb 183b ce3d ed0d a7bb
000002b0: 232f 363e b0ec 943d aae6 68be 9e82 bd3d
000002c0: 58f0 313d 34d9 003e 2365 ba3d 8e53 f1bd
000002d0: c856 133c 0d13 fe3c a6b5 4b3e 9235 f43c
000002e0: 1398 853d 55f5 883d e463 b2bd cbc1 66bc
000002f0: 6a7d 21be 02c2 213d a430 293e 3a2b dd3c
00000300: 86de 58be 3919 c2bd 5209 ddbe c4e2 dbbd
00000310: 3ae2 c3bd d457 103d 3327 dbbd 9ea9 23bd
00000320: 6296 413c eafc 963d b6a1 04be 3f94 04be
00000330: d7a0 2fbe ee78 c43d 2c96 73bd bf9d 023e
00000340: 5a8c 253d dae8 e93c 826a 90bc 70bd dabc
00000350: 1d4f 703c 4d8d 7ebd df36 82bd b995 8f3c
00000360: d669 11be 947e c5bd 5b74 c93d d597 2fbe
00000370: 9bdc c9bc 944d 0c3e 7da4 ef3d b57f 8b3c
00000380: a4e2 5dbe 62a2 bd3d c6be a4be 8695 113d
00000390: b7d0 b1bd 81d7 1bbd ecb5 55bd 79a8 9b3d
000003a0: a25a b6bc 7f07 443e d66a 083e d235 f3bd
000003b0: ed82 d93d 328f 19be d1d8 a0bc b816 a13d
000003c0: 2d7a 533c 617a d93d 3ca6 73bd 3e85 313d
000003d0: 221b a03d 246a 26be 8f6b 0c3e 40a5 1cbe
000003e0: af43 383d 6bd1 21bd 8746 c1bd 962f 80bc
000003f0: 6a6b 113e e61d 50bd e937 d7bc 517c 06be

fc1.bias f4 [256]
0.05626457 0.06575084 -0.0021210946 -0.028766755 0.03737073 0.028628888 -0.110735185 -0.073123656
-0.1684653 -0.14250967 0.13354474 0.10988477 -0.12706761 -0.14150862 -0.11823051 0.07771274
0.08723783 -0.06267652 -0.061294146 -0.15203735 -0.046773456 0.08664546 0.083092205 -0.07347995
-0.048573475 0.058363657 0.1131231 0.17165624 0.045926202 0.13980938 0.15012828 -0.0062373322
-0.032190003 0.08582248 0.00033258268 0.13481092 0.06684278 0.058713693 -0.13925195 0.10730337
-0.06634497 -0.017586814 0.067404956 0.06003495 -0.027867679 -0.05052875 -0.15187635 -0.10576736
-0.047296274 -0.017523961 -0.032759294 0.10273776 -0.052284043 -0.058280595 0.04767988 -0.038918883
0.13814247 0.023505287 0.14010255 0.10193156 0.18338431 0.04934496 0.13883565 0.008048914
0.054385327 -0.06915219 -0.15379182 -0.11146491 -0.15878133 -0.027766256 -0.14376228 0.12941833
-0.14753754 0.10117061 0.052252613 -0.06113963 0.13991536 0.01323845 -0.017351935 0.12027007
-0.1598257 0.13907029 -0.021548862 0.006115576 0.04874129 -0.055801243 -0.009564766 0.1562092
0.09947474 0.07299307 0.14419377 -0.11956621 -0.017292166 0.12700626 -0.050495546 0.09347778
0.07511957 -0.19304875 -0.02429605 0.14912258 -0.0038004436 -0.22353351 -0.11160899 0.028452964
-0.09813873 -0.15508753 0.13780642 -0.10845978 -0.13952541 0.08676138 0.10951322 0.01866495
0.17828703 0.019550512 0.120489486 -0.089429244 -0.121773854 0.03800826 -0.09926934 -0.011874852
0.0033319516 0.0019479847 -0.07449357 -0.011699291 -0.14113516 -0.06107705 0.04736619 0.13389009
0.15300867 0.020891424 -0.044583127 0.13429508 0.044865675 0.015704945 0.021276936 -0.10066195
-0.059920188 -0.14174058 -0.03165812 -0.13799189 0.0051403395 -0.023010006 0.05562268 -0.09858889
0.0039343555 -0.08352808 -0.12757933 0.13966343 -0.17348017 0.10757463 -0.035364427 -0.13635646
-0.18691412 -0.17128184 -0.017928861 0.106574155 0.019131968 -0.090888925 0.16217785 0.10079555
0.068580896 0.15139388 0.0822239 -0.014072532 0.1113595 -0.10943903 -0.035416853 -0.089853585
-0.04331426 -0.12466444 0.118006624 -0.060379174 0.07543901 0.14495473 0.073484086 -0.0005065412
0.15582743 -0.18583642 0.12420699 -0.12369214 0.16006297 -0.008757161 -0.11230699 -0.055731036
-0.09322907 0.07139383 0.14555003 0.13452907 0.09434136 0.14682439 -0.1704891 0.08167538
0.05489807 0.093225725 0.043385897 -0.023063827 0.091382585 -0.10909598 -0.11063269 -0.0835251
0.10400076 0.006573195 -0.10367104 0.050083563 0.002462902 -0.077878736 0.13597427 0.108341865
0.108136296 -0.039227612 -0.104911774 -0.15225573 0.011499729 -0.118767284 0.076651126 -0.10856354
-0.10816312 0.018119346 0.03841033 -0.028010817 -0.026969727 -0.1017581 -0.049532913 0.033734813
-0.17066865 -0.014480677 0.0045965705 -0.020620435 0.13516282 -0.13262874 0.045218885 0.059287917
0.023564657 -0.027523533 0.096065775 -0.11883402 -0.05656015 0.011027273 -0.032969654 -0.15901507
0.079007596 0.111123845 -0.13266544 0.023472032 -0.17068906 0.0022894712 -0.02755305 0.16748442
0.12428351 0.07699245 -0.006252548 -0.15437306 -0.04608712 0.1477386 0.009074613 -0.010264151
00000000: ae75 663d 60a8 863d 1002 0bbb 42a8 ebbc
00000010: 0d12 193d 2187 ea3c 21c9 e2bd dbc1 95bd
00000020: 2b82 2cbe 0eee 11be f4bf 083e 440b e13d
00000030: 031e 02be a3e7 10be d622 f2bd db27 9f3d
00000040: bfa9 b23d 8c5c 80bd 920f 7bbd aeaf 1bbe
00000050: 8695 3fbd 2d73 b13d 3f2c aa3d a87c 96bd
00000060: fbf4 46bd bb0e 6f3d 15ad e73d a7c6 2f3e
00000070: 1d1d 3c3d 312a 0f3e 3abb 193e 8962 ccbb
00000080: aad9 03bd b2c3 af3d 7e5e ae39 e00b 0a3e
00000090: dee4 883d c57d 703d 1098 0ebe dfc1 db3d
000000a0: dfdf 87bd 3912 90bc 9c0b 8a3d 35e7 753d
000000b0: c24a e4bc 3cf7 4ebd 7985 1bbe 8f9c d8bd
000000c0: bdb9 41bd 698e 8fbc 9c2e 06bd 2d68 d23d
000000d0: cb27 56bd a2b7 6ebd fa4b 433d 6869 1fbd
000000e0: 3875 0d3e 298e c03c 0b77 0f3e 7ec1 d03d
000000f0: 19c9 3b3e f11d 4a3d ef2a 0e3e 98df 033c
00000100: 26c3 5e3d aa9f 8dbd 9a7b 1dbe b747 e4bd
00000110: 9397 22be 0f76 e3bc 6b36 13be 3d86 043e
00000120: 1514 17be 8932 cf3d d606 563d 8c6d 7abd
00000130: f945 0f3e 15e6 583c a525 8ebc 2850 f63d
00000140: 59a9 23be 7168 0e3e 3d87 b0bc 2b65 c83b
00000150: f2a4 473d d88f 64bd 89b5 1cbc 4ef5 1f3e
00000160: 6ab9 cb3d 647d 953d 88a7 133e 21df f4bd
00000170: 4da8 8dbc ee0d 023e 6bd4 4ebd 4771 bf3d
00000180: 4ad8 993d 92ae 45be 8308 c7bc 97b3 183e
00000190: dd10 79bb f8e5 64be 4193 e4bd 3116 e93c
000001a0: f5fc c8bd 44cf 1ebe 201d 0d3e 2920 debd
000001b0: c0df 0ebe f3af b13d 7848 e03d 3de7 983c
000001c0: e090 363e 6528 a03c 31c3 f63d ae26 b7bd
000001d0: 9264 f9bd 8dae 1b3d b94d cbbd bd8e 42bc
000001e0: df5c 5a3b 8553 ff3a 1690 98bd 62ae 3fbc
000001f0: bc85 10be ee2b 7abd 0d03 423d 7c1a 093e
00000200: 4eae 1c3e 7e24 ab3c cc9c 36bd a684 093e
00000210: 12c5 373d a8a7 803c f84c ae3c da27 cebd
00000220: df6e 75bd 7124 11be f2ab 01bd bf4d 0dbe
00000230: 4b70 a83b 7b7f bcbc 9bd4 633d f9e8 c9bd
00000240: c4eb 803b c510 abbd 28a4 02be ee03 0f3e
00000250: c9a4 31be 1650 dc3d 4ada 10bd 07a1 0bbe
00000260: 6a66 3fbe 8264 2fbe 8cdf 92bc 8d43 da3d
00000270: a5ba 9c3c f923 babd f311 263e e66d ce3d
00000280: 2474 8c3d ff06 1b3e 0165 a83d 7a90 66bc
00000290: 7310 e43d 9221 e0bd 4311 11bd 2805 b8bd
000002a0: 4b6a 31bd 1250 ffbd 75ad f13d 2750 77bd
000002b0: c57f 9a3d 036f 143e d37e 963d 68c9 04ba
000002c0: 3a91 1f3e e74b 3ebe 3c60 fe3d 4e52 fdbd
000002d0: 8ce7 233e 327a 0fbc 3501 e6bd 3a46 64bd
000002e0: e2ee bebd ee36 923d 110b 153e fdc1 093e
000002f0: 0b36 c13d 2259 163e b294 2ebe 6c45 a73d
00000300: ccdc 603d 21ed be3d 69b5 313d 5af0 bcbc
00000310: cb26 bb3d b76d dfbd 6493 e2bd 350f abbd
00000320: 5afe d43d f563 d73b 7b51 d4bd 6c24 4d3d
00000330: a468 213b e37e 9fbd d73c 0b3e 57e2 dd3d
00000340: 9076 dd3d 22ad 20bd fcdb d6bd ede8 1bbe
00000350: 5c69 3c3c 433c f3bd 44fb 9c3d 9056 debd
00000360: a084 ddbd 066f 943c 2654 1d3d f176 e5bc
00000370: 9eef dcbc 8d66 d0bd 06e3 4abd 842d 0a3d
00000380: c3c3 2ebe 5d40 6dbc d49e 963b 30ec a8bc
00000390: 1f68 0a3e d4cf 07be 7037 393d e3d7 723d
000003a0: ab0a c13c 0879 e1bc 22be c43d 405f f3bd
000003b0: 9eab 67bd bcab 343c 300b 07bd d9d4 22be
000003c0: bcce a13d e694 e33d 73d9 07be 6b48 c03c
000003d0: 1dc9 2ebe f40a 163b efb6 e1bc 0981 2b3e
000003e0: 5a88 fe3d 38ae 9d3d 2de2 ccbb f913 1ebe
000003f0: d9c5 3cbd ca48 173e b0ad 143c f82a 28bc

fc2.weight f4 [128, 256]
0.011012084 0.03145417 -0.0219511 -0.007131752 0.0036041585 0.039276056 -0.025167014 0.10400868
0.041358493 0.08706204 0.02576907 -0.072893225 -0.1291029 -0.042783815 -0.00993472 0.020207351
-0.13216186 0.044247307 -0.10968696 -0.08617887 -0.0272548 -0.010639182 -0.016971542 -0.16300128
0.029692676 0.032136522 0.07422853 -0.0667422 -0.011101912 -0.015731573 0.0035844082 -0.13423114
0.07649107 -0.03222248 0.08024021 0.010440966 -0.08824923 -0.0066959355 0.040530957 0.045934353
0.016684147 -0.016874926 -0.05834955 -0.0434027 -0.011453989 -0.01629201 0.011591024 0.032392144
-0.06496104 0.07648996 -0.036535714 -0.021474322 0.053097777 0.00040741815 -0.15605523 -0.04733906
-0.011116625 -0.031433653 -0.069867425 0.019283867 0.0031497448 -0.024342913 0.061680578 -0.03683433
0.01941795 0.054515578 0.06592346 0.09650392 -0.0131803155 -0.05605253 0.049434133 -0.055488516
-0.021847881 0.16065077 -0.03934688 0.01503977 0.03234087 0.019088391 -0.022227585 -0.050109304
0.064948805 -0.15329532 0.045365404 -0.008459191 -0.11621084 0.028780581 -0.0605544 0.05200118
0.014742196 0.04857156 -0.026152423 -0.022101322 -0.045079783 0.09193047 0.018873299 -0.0787442
0.024145711 -0.10066381 -0.041119114 0.027170256 0.07653751 -0.06604354 0.037078124 -0.015560498
0.044507895 0.094657674 -0.11697387 0.008476668 0.07937523 -0.047041595 0.024374705 -0.02537425
0.038283337 0.056059334 0.07165528 -0.026841668 0.015188679 -0.012050187 -0.0040952167 0.019079663
-0.03449018 -0.09076985 -0.04577116 -0.055897392 0.010003007 0.040412217 0.03699115 -0.0064825444
0.004952921 -0.06764036 -0.051054865 0.10157107 -0.041573357 0.06972592 0.03217832 -0.057867073
0.005682051 0.0057700695 0.016486336 0.05256252 -0.07473274 0.05414969 0.07133039 0.061328158
0.00068520446 0.03670297 0.057634268 0.014338359 0.015169179 0.06774855 -0.076903336 -0.1317766
0.005026289 -0.018056732 -0.10413857 0.030572584 -0.06436455 -0.047753964 0.01105235 0.0521173
-0.004517066 0.053021424 0.04259848 0.0052218307 -0.029418062 -0.09540258 0.09271271 -0.061875977
-0.06268119 -0.14126462 -0.051021606 -0.010485425 -0.02632744 -0.03387498 -0.0089206025 -0.024247723
-0.018520132 0.06400667 0.040408235 0.06272054 0.06413905 -0.055109918 -0.046932295 -0.017338712
0.0017645371 -0.07165 0.08972422 0.018742887 -0.080505 0.0042706747 0.025993997 0.04989703
-0.08464541 0.07366883 -0.11110065 -0.016406585 -0.07022873 -0.07570932 0.048448563 -0.07612235
-0.09089485 0.02543195 0.023519788 0.048024468 -0.027100423 0.010812135 -0.0042810966 0.0099148825
0.07589915 -0.045829214 0.018521613 -0.0052734963 0.005168336 0.0021561205 0.02082722 0.030003075
0.04650823 0.011076965 -0.022141675 -0.032072887 0.048074298 -0.14074542 0.03728019 -0.018803876
-0.06817166 0.02749575 -0.107438594 -0.057788633 0.110908255 0.029708114 0.05393648 0.12997577
0.016427169 -0.051259115 -0.005788647 0.053232316 -0.03555237 0.042478286 0.033851933 -0.10926269
0.015431775 -0.06361698 0.011742107 -0.007803165 0.003209214 -0.010727359 0.04771233 -0.012576607
0.014798623 -0.08850488 0.050806504 -0.101379685 0.115112424 0.032419294 -0.092387296 -0.0035739236
00000000: 076c 343c 16d6 003d cbd2 b3bc 79b1 e9bb
00000010: bf33 6c3b eedf 203d 0e2b cebc 8102 d53d
00000020: 8667 293d 954d b23d a819 d33c 0b49 95bd
00000030: 8d33 04be 153e 2fbd 3cc5 22bc e389 a53c
00000040: 7055 07be aa3c 353d 8fa3 e0bd 8c7e b0bd
00000050: 7545 dfbc f74f 2ebc e707 8bbc cfe9 26be
00000060: 0e3e f33c 96a1 033d 2105 983d 22b0 88bd
00000070: cbe4 35bc 80df 80bc 64e8 6a3b e373 09be
00000080: 5aa7 9c3d b8fb 03bd fb54 a43d 9610 2b3c
00000090: 03bc b4bd 9469 dbbb ca03 263d a925 3c3d
000000a0: 31ad 883c 493d 8abc f0ff 6ebd 08c7 31bd
000000b0: 83a9 3bbc d276 85bc 47e8 3d3c a0ad 043d
000000c0: 4b0a 85bd c5a6 9c3d 79a6 15bd ebea afbc
000000d0: 0e7d 593d bd9a d539 f1cc 1fbe 9ae6 41bd
000000e0: 8122 36bc 93c0 00bd a716 8fbd 33f9 9d3c
000000f0: f36b 4e3b ca6a c7bc c6a4 7c3d 98df 16bd
00000100: 6512 9f3c ba4b 5f3d e102 873d d9a3 c53d
00000110: 40f2 57bc 5697 65bd 727b 4a3d ed47 63bd
00000120: 54fa b2bc a381 243e 322a 21bd 5e69 763c
00000130: dc77 043d 425f 9c3c a016 b6bc 6a3f 4dbd
00000140: e103 853d 73f9 1cbe 13d1 393d 6b98 0abc
00000150: f3ff edbd 41c5 eb3c e407 78bd 30ff 543d
00000160: 4089 713c f9f2 463d 9b3d d6bc d50d b5bc
00000170: 94a5 38bd 0b46 bc3d 2d9c 9a3c a444 a1bd
00000180: 3acd c53c d428 cebd 846c 28bd 2894 de3c
00000190: b3bf 9c3d d641 87bd 3bdf 173d 76f1 7ebc
000001a0: e94d 363d e2db c13d ff8f efbd b9e1 0a3c
000001b0: 7b8f a23d b0ae 40bd 76ad c73c a9dd cfbc
000001c0: fdce 1c3d 799e 653d 01c0 923d 0fe3 dbbc
000001d0: f0d9 783c 266e 45bc 2b31 86bb f44c 9c3c
000001e0: 9345 0dbd 8be5 b9bd 8a7a 3bbd aaf4 64bd
000001f0: a7e3 233c 4887 253d 0884 173d 866b d4bb
00000200: 1d4c a23b 0787 8abd e81e 51bd 7e04 d03d
00000210: d348 2abd 77cc 8e3d 6acd 033d 0606 6dbd
00000220: 8030 ba3b da12 bd3b 5a0e 873c cc4b 573d
00000230: 7b0d 99bd 11cc 5d3d ab15 923d 3c33 7b3d
00000240: 4b9f 333a da55 163d e911 6c3d 70eb 6a3c
00000250: 2688 783c c0bf 8a3d 7f7f 9dbd 72f0 06be
00000260: 91b3 a43b b6eb 93bc 9a46 d5bd 5b73 fa3c
00000270: 90d1 83bd a999 43bd ea14 353c f378 553d
00000280: e503 94bb fe2c 593d be7b 2e3d e41b ab3b
00000290: 26fe f0bc 6e62 c3bd 29e0 bd3d aa71 7dbd
000002a0: ff5e 80bd aca7 10be 08fc 50bd 0fcb 2bbc
000002b0: a5ac d7bc 7ec0 0abd b827 12bc 29a3 c6bc
000002c0: 88b7 97bc ee15 833d 1b83 253d a073 803d
000002d0: 565b 833d f0ba 61bd 143c 40bd ea09 8ebc
000002e0: 0a48 e73a 3cbd 92bd 55c1 b73d af8a 993c
000002f0: cedf a4bd 04f1 8b3b 5df1 d43c d460 4c3d
00000300: 935a adbd afdf 963d bd88 e3bd 1a67 86bc
00000310: 15d4 8fbd 7d0d 9bbd 0072 463d 09e6 9bbd
00000320: 1427 babd aa56 d03c 92ac c03c 4eb5 443d
00000330: b501 debc 6225 313c 7148 8cbb 0872 223c
00000340: 0371 9b3d 6ab7 3bbd a3ba 973c 4bcd acbb
00000350: 255b a93b b34d 0d3b d99d aa3c 02c9 f53c
00000360: 6a7f 3e3d 297c 353c 7562 b5bc dc5e 03bd
00000370: 8ee9 443d 911f 10be 1db3 183d 960a 9abc
00000380: 959d 8bbd c43e e13c c408 dcbd c6b3 6cbd
00000390: de23 e33d 6e5e f33c 80ec 5c3d 5e18 053e
000003a0: 4592 863c 14f5 51bd b1ae bdbb 210a 5a3d
000003b0: 5d9f 11bd b6fd 2d3d 53a8 0a3d 1ec5 dfbd
000003c0: 8ed5 7c3c 9f49 82bd f761 403c b1b1 ffbb
000003d0: ad51 523b cec1 2fbc 016e 433d 1d0e 4ebc
000003e0: ec75 723c 0c42 b5bd 7b1a 503d 27a0 cfbd
000003f0: 10c0 eb3d 18ca 043d 8d35 bdbd 7d38 6abb

fc2.bias f4 [128]
-0.047087837 0.078093685 -0.024638731 0.047108382 -0.02630227 0.0153265 0.06236322 -0.0061783534
0.031901374 0.01010612 -0.029987933 -0.014723541 -0.040405687 0.0699479 0.028547045 -0.01350744
-0.02374873 -0.031216886 -0.02492566 -0.041259017 0.06449236 0.016599344 -0.031143773 -0.017308544
-0.0069906744 0.013418232 0.007845159 0.0207213 -0.03673689 0.03420254 -0.02675886 -0.020003961
0.036287054 0.010605982 0.037296887 -0.017856332 0.038401898 -0.02426191 0.027333956 0.059087273
0.013754276 0.069536276 0.015380638 0.006487608 -0.027936067 -0.018412814 0.037944093 -0.060451567
0.03941345 0.033704076 -0.053149737 0.022359792 0.045035996 0.058707964 0.06634011 0.025644459
0.06669498 -0.05405342 0.0155409295 0.0701635 0.043033503 -0.013274425 0.05589401 -0.0062522204
-0.010361683 0.07293494 0.055119283 -0.0741941 0.024854563 -0.007264659 0.026972143 -0.05297476
0.04316645 0.073459454 -0.050321564 -0.015546928 0.018470861 -0.036204487 -0.015925761 0.045349855
0.016250744 -0.0016907157 -0.035571184 -0.012435331 0.051838577 0.05969779 0.04571732 0.025762813
0.0641935 0.012240889 0.052700255 0.08125891 0.024385605 0.041340478 -0.0031477953 0.057547677
0.056057926 -0.011554263 0.052973244 -0.024107058 -0.02005996 0.07308953 0.0040972135 0.0470429
0.08472882 -0.016313192 0.062339462 0.059337303 -0.007288313 0.022854745 0.06415361 0.05298927
0.0444629 0.021317553 0.016689653 -0.044734653 -0.029051173 -0.016131489 0.044467643 -0.033787
0.02666458 0.024044514 0.017724268 -0.0057919407 0.04409648 0.045516443 -0.03272956 0.07270879
00000000: 2ddf 40bd 95ef 9f3d 2ad7 c9bc b8f4 403d
00000010: dc77 d7bc 001c 7b3c 9370 7f3d c973 cabb
00000020: 04ab 023d 2494 253c 41a9 f5bc 023b 71bc
00000030: 6f80 25bd d840 8f3d 7edb e93c 4f4e 5dbc
00000040: b28c c2bc 8eba ffbc e630 ccbc 37ff 28bd
00000050: 9214 843d 59fb 873c 3a21 ffbc a6ca 8dbc
00000060: 0712 e5bb 25d8 5b3c fb88 003c b7bf a93c
00000070: 6c79 16bd f617 0c3d 6635 dbbc 59df a3bc
00000080: bca1 143d b6c4 2d3c 9fc4 183d 7147 92bc
00000090: 4f4b 1d3d eac0 c6bc 76eb df3c 7f05 723d
000000a0: 9d59 613c 0969 8e3d 12ff 7b3c 0096 d43b
000000b0: 2eda e4bc 78d6 96bc 446b 1b3d 109c 77bd
000000c0: ff6f 213d 490d 0a3d 8ab3 59bd e22b b73c
000000d0: aa77 383d c377 703d 53dd 873d 5414 d23c
000000e0: 6197 883d 1e67 5dbd 629f 7e3c e2b1 8f3d
000000f0: e643 303d f97c 59bc 1ef1 643d 6ddf ccbb
00000100: 0cc4 29bc ea5e 953d c2c4 613d 14f3 97bd
00000110: cc9b cb3c 600c eebb aff4 dc3c 10fc 58bd
00000120: 4ecf 303d e971 963d fc1d 4ebd 8bb8 7ebc
00000130: 3450 973c 284b 14bd be76 82bc c5c0 393d
00000140: 4820 853c 019b ddba 17b3 11bd 8fbd 4bbc
00000150: b054 543d ab85 743d 1642 3b3d 890c d33c
00000160: e277 833d 028e 483c 39dc 573d 126b a63d
00000170: 52c4 c73c a254 293d 3e4b 4ebb 1db7 6b3d
00000180: ff9c 653d 174e 3dbc 79fa 583d 2a7c c5bc
00000190: c954 a4bc f7af 953d eb41 863b 0eb0 403d
000001a0: 4e86 ad3d 3ea3 85bc aa57 7f3d ac0b 733d
000001b0: cdd2 eebb e039 bb3c f862 833d 470b 593d
000001c0: bb1e 363d 26a2 ae3c bdb8 883c af3b 37bd
000001d0: bafc edbc 2f26 84bc b423 363d 3d64 0abd
000001e0: ad6f da3c 00f9 c43c 7c32 913c 52ca bdbb
000001f0: 839e 343d 736f 3a3d 6e0f 06bd 59e8 943d

fc3.weight f4 [64, 128]
0.07944637 -0.10460923 -0.033223677 0.08344444 -0.06477595 -0.12692234 0.04937834 0.028523574
-0.056496162 -0.02567541 -0.08806697 0.043601908 -0.021623587 0.029226962 0.07915635 0.079000354
-0.0070639313 -0.028767683 0.05367829 -0.09396983 -0.06408574 0.051092245 -0.006460477 -0.010352866
-0.15856497 0.061011367 0.046129234 -0.0046956367 0.050286766 -0.043302346 0.06254588 -0.06772589
0.002415859 -0.07612287 0.067477055 0.08208424 0.00955433 -0.005562045 -0.07122552 0.038801715
-0.011450362 0.036633346 0.12400306 -0.011288333 0.018440051 0.17539525 0.1269749 -0.035619903
0.054762494 -0.099790476 0.030780813 -0.03707233 0.09709342 0.09668977 -0.10071874 -0.06591271
-0.08782124 0.023953829 0.08585503 0.050036624 -0.055238277 -0.08346408 -0.039879587 0.03683659
-0.04980054 0.033135347 -0.12595259 0.0065602404 0.04311695 -0.015765298 -0.010132267 -0.13116044
0.10713267 0.019312246 -0.10836123 -0.06679144 0.042006813 -0.08143848 0.004767389 0.006595662
-0.008653067 0.0905187 0.08743786 -0.06462178 0.0057968698 0.049412973 0.07187483 -0.010094745
-0.013215693 -0.029480878 0.03635052 0.015549113 -0.00772808 -0.04913621 -0.017641945 0.060654618
0.021941235 0.021813946 0.01793665 -0.09850588 0.01012485 0.0442051 -0.11316055 -0.06899574
0.059435714 0.019247737 0.057412293 -0.07727017 -0.00020608095 0.048392054 -0.0860517 -0.07918547
-0.0015390276 -0.048415527 0.07658869 -0.07896283 0.06594703 0.09038286 -0.007566168 -0.05397029
0.047090072 0.0024446056 0.024887558 -0.09049575 0.031688664 0.085111484 -0.04940142 -0.042906232
0.08577151 -0.036367316 -0.019751528 -0.12066451 -0.06595438 -0.013114315 -0.015110771 0.051937044
0.1334094 -0.0056296675 -0.028140128 -0.07127925 -0.012385003 0.0027023163 0.050426792 0.020581326
0.0995913 -0.037487525 -0.14412037 -0.11832078 -0.04062369 0.07419456 0.010552569 -0.05465898
-0.015139124 0.008494413 0.057139724 -0.015107569 0.070515595 0.070357166 0.03861513 -0.017958093
0.04921719 -0.06487102 -0.056518693 0.003465365 -0.058225397 -0.023515638 0.0027413338 -0.06861395
0.07265005 0.03879719 0.07733371 -0.002251715 -0.0021761786 0.03279115 -0.027599545 -0.06242092
0.049755033 0.08530968 -0.07982352 -0.08408168 -0.06981198 0.032845594 -0.056657694 0.06435887
0.005440379 0.0027728085 -0.0024738074 -0.030771706 -0.062072307 0.016806578 -0.08914249 -0.1505955
-0.0918767 -0.06307195 0.08687858 0.056264818 -0.00031106046 -0.09382541 0.04840093 0.07695364
0.010983342 -0.06302763 -0.089821495 0.023120107 0.06797535 -0.10360881 0.002066687 -0.03032786
-0.025082566 0.033769324 -0.08570324 0.14445795 0.09968405 0.039509345 -0.13487484 0.023208756
-0.08074608 0.043049652 -0.007961684 0.004155545 0.011170863 -0.10713224 0.006201801 0.07337129
-0.024077697 0.046257578 0.06300263 0.059391502 0.0006907363 -0.041791104 0.03182587 -0.10801521
-0.09473601 0.11616313 -0.016172996 0.04405367 0.04383934 0.02504534 0.13211924 -0.07280587
0.060963027 0.03576504 0.0644628 0.037212487 0.044640217 -0.005897295 -0.05660648 -0.07733778
-0.09886105 -0.027058799 -0.104007594 0.072862856 -0.03364195 -0.05212097 -0.08529554 -0.05120803
00000000: c7b4 a23d 5d3d d6bd 8d15 08bd ebe4 aa3d
00000010: 41a9 84bd eef7 01be f140 4a3d 45aa e93c
00000020: 8568 67bd 3d55 d2bc 755c b4bd ea97 323d
00000030: f323 b1bc 626d ef3c b91c a23d f0ca a13d
00000040: 8d78 e7bb 34aa ebbc c4dd 5b3d 4173 c0bd
00000050: 623f 83bd 1a46 513d 69b2 d3bb 119f 29bc
00000060: db5e 22be 0ee7 793d 02f2 3c3d dbdd 99bb
00000070: 7ff9 4d3d cd5d 31bd 0e18 803d dfb3 8abd
00000080: 6353 1e3b 4fe6 9bbd 6931 8a3d c81b a83d
00000090: c489 1c3c d141 b6bb afde 91bd 8cee 1e3d
000000a0: 4d9a 3bbc d90c 163d 51f5 fd3d b3f2 38bc
000000b0: 970f 973c d09a 333e b505 023e 2de6 11bd
000000c0: a34e 603d f35e ccbd 0b28 fc3c 28d9 17bd
000000d0: ead8 c63d 4905 c63d a045 cebd 3efd 86bd
000000e0: 9fdb b3bd d23a c43c c3d4 af3d 34f3 4c3d
000000f0: 8841 62bd 37ef aabd c758 23bd f7e1 163d
00000100: a7fb 4bbd eeb8 073d b7f9 00be 49f7 d63b
00000110: 669b 303d 3a26 81bc cf01 26bc ec4e 06be
00000120: 6068 db3d b734 9e3c 7eec ddbd f3c9 88bd
00000130: 560f 2c3d 38c9 a6bd c237 9c3b 6c20 d83b
00000140: 98c5 0dbc de61 b93d 9f12 b33d 6c58 84bd
00000150: abf3 bd3b 4265 4a3d 1c33 933d 6e64 25bc
00000160: a286 58bc e281 f1bc 48e4 143d b5c1 7e3c
00000170: d53b fdbb 0d43 49bd d785 90bc fa70 783d
00000180: 1bbe b33c 29b3 b23c e2ef 923c 73bd c9bd
00000190: b3e2 253c 6810 353d b8c0 e7bd a34d 8dbd
000001a0: dd72 733d 6ead 9d3c 2729 6b3d d33f 9ebd
000001b0: 6f17 58b9 bf36 463d e03b b0bd fe2b a2bd
000001c0: 32b9 c9ba 5c4f 46bd 88da 9c3d 44b7 a1bd
000001d0: 3d0f 873d a61a b93d 9eed f7bb f30f 5dbd
000001e0: 85e1 403d ad35 203b fee0 cb3c d655 b9bd
000001f0: f9cb 013d ee4e ae3d 2559 4abd 72be 2fbd
00000200: f9a8 af3d e5f5 14bd f5cd a1bc f41e f7bd
00000210: 1713 87bd 6ddd 56bc 2b93 77bc f0bb 543d
00000220: 799c 083e 1379 b8bb 2086 e6bc dbfa 91bd
00000230: 78ea 4abc 5819 313b 538c 4e3d 2b9a a83c
00000240: 86f6 cb3d 858c 19bd 4a94 13be 2a52 f2bd
00000250: 0765 26bd 51f3 973d afe4 2c3c 18e2 5fbd
00000260: 170a 78bc 272c 0b3c 580b 6a3d bd85 77bc
00000270: 7b6a 903d 6b17 903d e62a 1e3d da1c 93bc
00000280: f797 493d 19db 84bd 2580 67bd 2d1b 633b
00000290: c17d 6ebd dea3 c0bc f3a7 333b 7885 8cbd
000002a0: 8dc9 943d cde9 1e3d 2361 9e3d 8291 13bb
000002b0: 389e 0ebb 0350 063d 7118 e2bc 14ad 7fbd
000002c0: efcb 4b3d d7b6 ae3d 837a a3bd 0433 acbd
000002d0: 95f9 8ebd 1a89 063d e611 68bd 95ce 833d
000002e0: 3545 b23b 02b8 353b 9a1f 22bb f214 fcbc
000002f0: 883f 7ebd f3ad 893c 5690 b6bd b535 1abe
00000300: da29 bcbd de2b 81bd 66ed b13d f075 663d
00000310: d415 a3b9 8927 c0bd 0e40 463d df99 9d3d
00000320: 7af3 333c a114 81bd 55f4 b7bd 6166 bd3c
00000330: a936 8b3d db30 d4bd 4171 073b 2272 f8bc
00000340: f479 cdbc b451 0a3d 2e85 afbd c9ec 133e
00000350: 2727 cc3d 8dd4 213d a11c 0abe 4a20 be3c
00000360: 335e a5bd d554 303d b971 02bc 3d2b 883b
00000370: ff05 373c 2668 dbbd 7a38 cb3b b043 963d
00000380: 973e c5bc 9678 3d3d 8607 813d 8144 733d
00000390: 8712 353a 262d 2bbd d85b 023d 1437 ddbd
000003a0: f404 c2bd efe6 ed3d 3b7d 84bc 9f71 343d
000003b0: e190 333d e32b cd3c 444a 073e 3e1b 95bd
000003c0: 5eb4 793d 5d7e 123d 1305 843d 1f6c 183d
000003d0: a9d8 363d 193e c1bb 32dc 67bd 4563 9ebd
000003e0: aa77 cabd 6aaa ddbc ef01 d5bd 1f39 953d
000003f0: 24cc 09bd cc7c 55bd 6eaf aebd 83bf 51bd

fc3.bias f4 [64]
-0.025946667 0.03423219 0.10705379 -0.03577419 0.08578176 0.10453319 -0.09602559 -0.004027085
0.062079716 0.04958427 0.06816059 -0.027322773 0.063415654 0.00072376995 0.016811742 0.024579024
0.028662793 0.043076497 -0.042795688 0.025526682 0.0067504877 0.04998606 -0.05955787 -0.036669675
0.061323073 -0.010294347 0.12123152 0.09601191 0.030190552 -0.05460457 0.05627196 0.10123865
0.08112666 -0.049980003 0.078292556 -0.035073612 0.046671372 0.061721534 -0.051530425 0.10809041
0.093876295 0.035088472 -0.04838833 0.12106611 -0.09295722 -0.0484421 -0.035439856 0.040646274
-0.04024465 -0.03681743 -0.017670704 -0.007027795 0.028699387 -0.0785425 0.04854827 -0.037885595
0.08467756 -0.056492973 -0.0130693745 -0.004086305 0.04326861 0.11726942 0.08245541 -0.057550754
00000000: 1b8e d4bc 0e37 0c3d 043f db3d f587 12bd
00000010: 59ae af3d 7f15 d63d 11a9 c4bd a3f5 83bb
00000020: 4d47 7e3d e018 4b3d c897 8b3d 02d4 dfbc
00000030: 11e0 813d 61bb 3d3a c7b8 893c f359 c93c
00000040: 3cce ea3c fb70 303d 884a 2fbd 551d d13c
00000050: 3233 dd3b 2fbe 4c3d f4f2 73bd f132 16bd
00000060: e72d 7b3d 9fa9 28bc 3b48 f83d e4a1 c43d
00000070: 2d52 f73c 0ba9 5fbd 6d7d 663d 3656 cf3d
00000080: bc25 a63d d5b7 4cbd d957 a03d 59a9 0fbd
00000090: 7b2a 3f3d b8cf 7c3d 9111 53bd 815e dd3d
000000a0: 3742 c03d eeb8 0f3d d732 46bd 82f1 f73d
000000b0: 5b60 bebd 396b 46bd 6229 11bd b57c 263d
000000c0: 93d7 24bd e0cd 16bd 27c2 90bc 6b49 e6bb
000000d0: fa1a eb3c e4da a0bd 8dda 463d ed2d 1bbd
000000e0: 6e6b ad3d 2d65 67bd ee20 56bc 69e6 85bb
000000f0: 6d3a 313d f32a f03d 62de a83d 57ba 6bbd

fc4.weight f4 [4, 64]
-0.032283086 9.807875e-05 0.14571805 -0.028053848 0.03939709 0.10701007 -0.17291912 0.14814232
0.057606705 -0.031960316 0.06765468 -0.06277739 -0.0012512685 -0.19565861 0.20854811 0.023726063
-0.0518928 -0.13943298 -0.02351463 0.04214009 0.07961473 0.10298291 -0.07990796 -0.05735112
-0.10466562 0.038260736 0.036034986 0.003283078 0.005820852 0.056792118 0.15305334 -0.23955174
-0.14673929 0.05788008 -0.13634524 -0.07456452 0.16058701 -0.07237189 0.05945708 0.10881551
0.11934546 -0.09786153 0.024552416 0.08836224 -0.083876096 0.078367405 -0.15856685 -0.0885898
0.16371764 -0.09852055 0.12952413 -0.02983337 -0.066053234 0.15361579 0.06222121 -0.100028776
-0.05836985 0.13804874 0.091513135 -0.17523101 0.08592798 0.10746291 0.09518467 -0.09033793
-0.11020037 0.07034498 -0.03309225 -0.056127444 -0.06473739 0.07784694 0.06590676 0.112470254
-0.095621854 -0.07209475 0.015000334 -0.123890914 0.038442764 0.12713267 0.011588266 -0.035209455
0.045154642 0.09710066 -0.033056077 0.14337319 0.08459625 0.14795068 -0.007948294 0.0811123
-0.00867439 0.15368973 0.1196245 0.032024138 0.17301694 -0.008113608 0.041256383 0.03666487
-0.21569803 -0.05780181 0.14097433 0.17138755 0.048284605 -0.09672768 0.025985632 -0.053109646
0.077558905 0.09469203 -0.026753418 0.019674057 -0.09872991 0.03773352 -0.11013071 0.016745476
0.11215467 0.10239111 0.00045901217 0.04852319 0.05491617 0.040302522 0.08952243 -0.00980261
0.12645493 0.12659591 -0.036583547 -0.112151474 -0.011311364 0.013638332 0.046392776 -0.10324077
0.16258605 -0.002472999 0.10873467 -0.17185335 0.02107706 0.14090082 -0.00059992453 0.11533016
-0.018309422 0.025257196 0.058705628 0.012962597 0.005676525 0.043588225 0.028038947 0.067453384
0.02411924 -0.19302002 -0.01591429 0.12414418 -0.020453032 0.035598196 0.028365735 -0.12758426
-0.12242351 0.07917009 0.16590968 0.14339252 -0.044093017 -0.15177977 0.05704688 0.010976985
-0.091000654 -0.1282934 -0.11697113 0.05786389 0.009632326 0.13079305 0.16379024 0.02608636
0.11526947 -0.16032587 0.057936553 0.018425992 -0.14703767 0.070775226 -0.10281923 0.09026188
-0.061659038 -0.077157244 0.08903469 -0.08864718 -0.073183596 -0.08694723 0.027067648 -0.10143034
0.14913623 0.11088745 0.012202022 0.19603573 -0.026865436 -0.0146897305 -0.030487793 -0.08480131
-0.012364085 0.18500166 -0.068009555 -0.05960403 0.16775073 0.018191012 -0.10232773 -0.12016458
0.20735192 0.103968605 -0.0062516304 -0.04069775 0.19476281 -0.09424129 0.061187334 0.099564336
-0.06563157 0.071033604 -0.11802426 0.048083294 0.20796375 0.1332299 0.06998318 0.06174325
-0.070018314 -0.089754075 0.11024313 0.021507721 0.04256133 0.108768 -0.04182077 0.040946648
0.20426261 0.016716454 0.23028466 0.04175478 -0.0044412687 0.057431035 -0.07046606 -0.03926708
-0.11755969 0.045317624 0.18524618 -0.0027933489 -0.05934339 -0.09666628 -0.1075841 -0.09932264
0.15012954 -0.06900169 0.04562042 -0.03203452 0.01187395 -0.084877826 0.13841902 0.15550853
0.089573465 0.15117784 -0.08144026 0.041112036 0.15334599 0.14065042 0.1350969 -0.06317797
00000000: 453b 04bd a1af cd38 1d37 153e 2fd1 e5bc
00000010: d85e 213d 1828 db3d b611 31be 9fb2 173e
00000020: 02f5 6b3d d2e8 02bd 898e 8a3d 6f91 80bd
00000030: 9b01 a4ba bb5a 48be a38d 553e 295d c23c
00000040: 8b8d 54bd 85c7 0ebe c1a1 c0bc 169b 2c3d
00000050: 0c0d a33d b4e8 d23d c9a6 a3bd 02e9 6abd
00000060: ee5a d6bd 4ab7 1c3d 6c99 133d e928 573b
00000070: d8bc be3b da9e 683d 04ba 1c3e 0d4d 75be
00000080: d342 16be aa13 6d3d 169e 0bbe 48b5 98bd
00000090: ec70 243e b737 94bd 4489 733d abda de3d
000000a0: 646b f43d a06b c8bd 2622 c93c 43f7 b43d
000000b0: 3bc7 abbd 177f a03d 595f 22be 926e b5bd
000000c0: 99a5 273e 24c5 c9bd f9a1 043e 1d65 f4bc
000000d0: eb46 87bd 754d 1d3e abdb 7e3d e3db ccbd
000000e0: 3915 6fbd a65c 0d3e 3d6b bb3d c26f 33be
000000f0: 02fb af3d 8415 dc3d 2ef0 c23d 1803 b9bd
00000100: bbb0 e1bd 0711 903d bd8b 07bd e4e5 65bd
00000110: 0995 84bd 376e 9f3d 20fa 863d ce56 e63d
00000120: 64d5 c3bd 6aa6 93bd f6c3 753c 85ba fdbd
00000130: 2976 1d3d 112f 023e b6dc 3d3c ca37 10bd
00000140: 13f4 383d b6dc c63d cf65 07bd 6cd0 123e
00000150: cc40 ad3d 6280 173e 9039 02bc 351e a63d
00000160: 071f 0ebc d760 1d3e b1fd f43d be2b 033d
00000170: 5a2b 313e f0ee 04bc 74fc 283d e72d 163d
00000180: f2df 5cbe 97c1 6cbd 935b 103e 3880 2f3e
00000190: 14c6 453d 2919 c6bd d2df d43c 8089 59bd
000001a0: 34d7 9e3d e5ed c13d fc29 dbbc 7d2b a13c
000001b0: e832 cabd 778e 1a3d 368c e1bd cf2d 893c
000001c0: 59b1 e53d 6eb2 d13d 92a7 f039 41c0 463d
000001d0: c7ef 603d 4214 253d 8957 b73d 209b 20bc
000001e0: 677d 013e 5ca2 013e a1d8 15bd acaf e5bd
000001f0: 4d53 39bc 4f73 5f3c 5a06 3e3d e66f d3bd
00000200: f57c 263e 0a12 22bb 48b0 de3d 53fa 2fbe
00000210: cca9 ac3c 4e48 103e 4144 1dba 3832 ec3d
00000220: a4fd 95bc 2ee8 ce3c 5075 703d 1361 543c
00000230: 2502 ba3b 9189 323d efb1 e53c 0025 8a3d
00000240: b695 c53c 0aa7 45be af5e 82bc 4e3f fe3d
00000250: 1e8d a7bc 6acf 113d 425f e83c 73a5 02be
00000260: 2db9 fabd ee23 a23d 3ae4 293e 7dd5 123e
00000270: e19a 34bd 286c 1bbe fda9 693d d0d8 333c
00000280: 8d5e babd 585f 03be 8f8e efbd b002 6d3d
00000290: e7d0 1d3c 9dee 053e a1b8 273e 10b3 d53c
000002a0: 6612 ec3d 772c 24be e14e 6d3d 1bf2 963c
000002b0: 0b91 16be 9af2 903d e392 d2bd 38db b83d
000002c0: 308e 7cbd 9e04 9ebd d257 b63d a78c b5bd
000002d0: 48e1 95bd 6411 b2bd f9bc dd3c b6ba cfbd
000002e0: 2bb7 183e f618 e33d fdea 473c 97bd 483e
000002f0: e714 dcbc 32ad 70bc 89c1 f9bc 4fac adbd
00000300: bb92 4abc 1371 3d3e 9848 8bbd 5b23 74bd
00000310: d9c6 2b3e 5105 953c 3391 d1bd d918 f6bd
00000320: 1054 543e 7eed d43d 7ada ccbb afb2 26bd
00000330: e76f 473e 9401 c1bd 929f 7a3d 63e8 cb3d
00000340: d869 86bd 117a 913d b4b6 f1bd fdf2 443d
00000350: 73f4 543e 6b6d 083e 5753 8f3d 7de6 7c3d
00000360: c365 8fbd fcd0 b7bd 26c7 e13d f630 b03c
00000370: ca54 2e3d c2c1 de3d 414c 2bbd acb7 273d
00000380: 382a 513e f2f0 883c becf 6b3e 0f07 2b3d
00000390: 1088 91bb ce3c 6b3d 8250 90bd 85d6 20bd
000003a0: 22c3 f0bd f99e 393d 2db1 3d3e 9e10 37bb
000003b0: 0e12 73bd f8f8 c5bd 0d55 dcbd ab69 cbbd
000003c0: 8fbb 193e c250 8dbd 7adc 3a3d a136 03bd
000003d0: f58a 423c 6dd4 adbd b7bd 0d3e a13d 1f3e
000003e0: 4b72 b73d 5dce 1a3e 27ca a6bd 1865 283d
000003f0: bb06 1d3e aa06 103e d756 0a3e 7463 81bd

fc4.bias f4 [4]
-0.048334964 0.087318785 -0.064544015 0.040361397
00000000: e2fa 45bd 31d4 b23d a72f 84bd fe51 253d
